…
2021-07-13 20:22:10.790218: I tensorflow/stream_executor/platform/default/dso_loader.cc:49] Successfully opened dynamic library libcublas.so.11
2021-07-13 20:22:11.576413: I tensorflow/stream_executor/platform/default/dso_loader.cc:49] Successfully opened dynamic library libcublasLt.so.11
2021-07-13 20:22:11.587612: I tensorflow/stream_executor/platform/default/dso_loader.cc:49] Successfully opened dynamic library libcudnn.so.8
Model: "Generator"
_________________________________________________________________
Layer (type)                 Output Shape              Param #   
=================================================================
dense (Dense)                (None, 7040)              183040    
_________________________________________________________________
batch_normalization (BatchNo (None, 7040)              28160     
_________________________________________________________________
re_lu (ReLU)                 (None, 7040)              0         
_________________________________________________________________
reshape (Reshape)            (None, 4, 11, 160)        0         
_________________________________________________________________
conv2d_transpose (Conv2DTran (None, 8, 22, 80)         320080    
_________________________________________________________________
batch_normalization_1 (Batch (None, 8, 22, 80)         320       
_________________________________________________________________
re_lu_1 (ReLU)               (None, 8, 22, 80)         0         
_________________________________________________________________
conv2d_transpose_1 (Conv2DTr (None, 16, 44, 40)        80040     
_________________________________________________________________
batch_normalization_2 (Batch (None, 16, 44, 40)        160       
_________________________________________________________________
re_lu_2 (ReLU)               (None, 16, 44, 40)        0         
_________________________________________________________________
conv2d_transpose_2 (Conv2DTr (None, 32, 88, 20)        20020     
_________________________________________________________________
batch_normalization_3 (Batch (None, 32, 88, 20)        80        
_________________________________________________________________
re_lu_3 (ReLU)               (None, 32, 88, 20)        0         
_________________________________________________________________
conv2d_transpose_3 (Conv2DTr (None, 64, 176, 3)        1503      
=================================================================
Total params: 633,403
Trainable params: 619,043
Non-trainable params: 14,360
_________________________________________________________________
Model: "Discriminator"
_________________________________________________________________
Layer (type)                 Output Shape              Param #   
=================================================================
conv2d (Conv2D)              (None, 32, 88, 20)        1520      
_________________________________________________________________
leaky_re_lu (LeakyReLU)      (None, 32, 88, 20)        0         
_________________________________________________________________
conv2d_1 (Conv2D)            (None, 16, 44, 40)        20040     
_________________________________________________________________
batch_normalization_4 (Batch (None, 16, 44, 40)        160       
_________________________________________________________________
leaky_re_lu_1 (LeakyReLU)    (None, 16, 44, 40)        0         
_________________________________________________________________
conv2d_2 (Conv2D)            (None, 8, 22, 80)         80080     
_________________________________________________________________
batch_normalization_5 (Batch (None, 8, 22, 80)         320       
_________________________________________________________________
leaky_re_lu_2 (LeakyReLU)    (None, 8, 22, 80)         0         
_________________________________________________________________
conv2d_3 (Conv2D)            (None, 4, 11, 160)        320160    
_________________________________________________________________
batch_normalization_6 (Batch (None, 4, 11, 160)        640       
_________________________________________________________________
leaky_re_lu_3 (LeakyReLU)    (None, 4, 11, 160)        0         
_________________________________________________________________
reshape_1 (Reshape)          (None, 7040, 1)           0         
_________________________________________________________________
flatten (Flatten)            (None, 7040)              0         
_________________________________________________________________
dense_1 (Dense)              (None, 1)                 7041      
=================================================================
Total params: 429,961
Trainable params: 429,401
Non-trainable params: 560
_________________________________________________________________
>>>>>>> Starting training anew!
Fetching dataset...
Epoch 1:
Training:   __________________________________________________>   0%
Training:   =_________________________________________________>   0%
…
