…
2021-07-12 20:53:23.994461: I tensorflow/stream_executor/cuda/cuda_gpu_executor.cc:941] successful NUMA node read from SysFS had negative value (-1), but there must be at least one NUMA node, so returning NUMA node zero
2021-07-12 20:53:23.995799: I tensorflow/core/common_runtime/gpu/gpu_device.cc:1406] Created TensorFlow device (/job:localhost/replica:0/task:0/device:GPU:0 with 2165 MB memory) -> physical GPU (device: 0, name: NVIDIA GeForce RTX 2080 Ti, pci bus id: 0000:0a:00.0, compute capability: 7.5)
Model: "Generator"
_________________________________________________________________
Layer (type)                 Output Shape              Param #   
=================================================================
dense (Dense)                (None, 7040)              183040    
_________________________________________________________________
batch_normalization (BatchNo (None, 7040)              28160     
_________________________________________________________________
re_lu (ReLU)                 (None, 7040)              0         
_________________________________________________________________
reshape (Reshape)            (None, 4, 11, 160)        0         
_________________________________________________________________
conv2d_transpose (Conv2DTran (None, 8, 22, 80)         320080    
_________________________________________________________________
batch_normalization_1 (Batch (None, 8, 22, 80)         320       
_________________________________________________________________
re_lu_1 (ReLU)               (None, 8, 22, 80)         0         
_________________________________________________________________
conv2d_transpose_1 (Conv2DTr (None, 16, 44, 40)        80040     
_________________________________________________________________
batch_normalization_2 (Batch (None, 16, 44, 40)        160       
_________________________________________________________________
re_lu_2 (ReLU)               (None, 16, 44, 40)        0         
_________________________________________________________________
conv2d_transpose_2 (Conv2DTr (None, 32, 88, 20)        20020     
_________________________________________________________________
batch_normalization_3 (Batch (None, 32, 88, 20)        80        
_________________________________________________________________
re_lu_3 (ReLU)               (None, 32, 88, 20)        0         
_________________________________________________________________
conv2d_transpose_3 (Conv2DTr (None, 64, 176, 3)        1503      
=================================================================
Total params: 633,403
Trainable params: 619,043
Non-trainable params: 14,360
_________________________________________________________________
Model: "Discriminator"
_________________________________________________________________
Layer (type)                 Output Shape              Param #   
=================================================================
conv2d (Conv2D)              (None, 32, 88, 20)        1520      
_________________________________________________________________
leaky_re_lu (LeakyReLU)      (None, 32, 88, 20)        0         
_________________________________________________________________
conv2d_1 (Conv2D)            (None, 16, 44, 40)        20040     
_________________________________________________________________
batch_normalization_4 (Batch (None, 16, 44, 40)        160       
_________________________________________________________________
leaky_re_lu_1 (LeakyReLU)    (None, 16, 44, 40)        0         
_________________________________________________________________
conv2d_2 (Conv2D)            (None, 8, 22, 80)         80080     
_________________________________________________________________
batch_normalization_5 (Batch (None, 8, 22, 80)         320       
_________________________________________________________________
leaky_re_lu_2 (LeakyReLU)    (None, 8, 22, 80)         0         
_________________________________________________________________
conv2d_3 (Conv2D)            (None, 4, 11, 160)        320160    
_________________________________________________________________
batch_normalization_6 (Batch (None, 4, 11, 160)        640       
_________________________________________________________________
leaky_re_lu_3 (LeakyReLU)    (None, 4, 11, 160)        0         
_________________________________________________________________
reshape_1 (Reshape)          (None, 7040, 1)           0         
_________________________________________________________________
flatten (Flatten)            (None, 7040)              0         
_________________________________________________________________
mini_batch_discrimination (M (None, 7200)              3379680   
_________________________________________________________________
dense_1 (Dense)              (None, 1)                 7201      
=================================================================
Total params: 3,809,801
Trainable params: 3,809,241
Non-trainable params: 560
_________________________________________________________________
>>>>>>> Starting training anew!
Loading images...
Loading:   __________________________________________________>   0%
Loading:   =_________________________________________________>   0%
…
