…
2021-09-10 19:33:37.166112: I tensorflow/core/common_runtime/gpu/gpu_device.cc:1406] Created TensorFlow device (/job:localhost/replica:0/task:0/device:GPU:0 with 10073 MB memory) -> physical GPU (device: 0, name: NVIDIA GeForce RTX 2080 Ti, pci bus id: 0000:03:00.0, compute capability: 7.5)
Trying to impersonate Eva Mendes against Barack Obama...
Loading models...
Model: "Generator"
_________________________________________________________________
Layer (type)                 Output Shape              Param #   
=================================================================
dense (Dense)                (None, 7040)              183040    
_________________________________________________________________
batch_normalization_34 (Batc (None, 7040)              28160     
_________________________________________________________________
re_lu (ReLU)                 (None, 7040)              0         
_________________________________________________________________
reshape (Reshape)            (None, 4, 11, 160)        0         
_________________________________________________________________
conv2d_transpose (Conv2DTran (None, 8, 22, 80)         320080    
_________________________________________________________________
batch_normalization_35 (Batc (None, 8, 22, 80)         320       
_________________________________________________________________
re_lu_1 (ReLU)               (None, 8, 22, 80)         0         
_________________________________________________________________
conv2d_transpose_1 (Conv2DTr (None, 16, 44, 40)        80040     
_________________________________________________________________
batch_normalization_36 (Batc (None, 16, 44, 40)        160       
_________________________________________________________________
re_lu_2 (ReLU)               (None, 16, 44, 40)        0         
_________________________________________________________________
conv2d_transpose_2 (Conv2DTr (None, 32, 88, 20)        20020     
_________________________________________________________________
batch_normalization_37 (Batc (None, 32, 88, 20)        80        
_________________________________________________________________
re_lu_3 (ReLU)               (None, 32, 88, 20)        0         
_________________________________________________________________
conv2d_transpose_3 (Conv2DTr (None, 64, 176, 3)        1503      
=================================================================
Total params: 633,403
Trainable params: 619,043
Non-trainable params: 14,360
_________________________________________________________________
Model: "Discriminator"
_________________________________________________________________
Layer (type)                 Output Shape              Param #   
=================================================================
conv2d_34 (Conv2D)           (None, 32, 88, 20)        1520      
_________________________________________________________________
leaky_re_lu (LeakyReLU)      (None, 32, 88, 20)        0         
_________________________________________________________________
conv2d_35 (Conv2D)           (None, 16, 44, 40)        20040     
_________________________________________________________________
batch_normalization_38 (Batc (None, 16, 44, 40)        160       
_________________________________________________________________
leaky_re_lu_1 (LeakyReLU)    (None, 16, 44, 40)        0         
_________________________________________________________________
conv2d_36 (Conv2D)           (None, 8, 22, 80)         80080     
_________________________________________________________________
batch_normalization_39 (Batc (None, 8, 22, 80)         320       
_________________________________________________________________
leaky_re_lu_2 (LeakyReLU)    (None, 8, 22, 80)         0         
_________________________________________________________________
conv2d_37 (Conv2D)           (None, 4, 11, 160)        320160    
_________________________________________________________________
batch_normalization_40 (Batc (None, 4, 11, 160)        640       
_________________________________________________________________
leaky_re_lu_3 (LeakyReLU)    (None, 4, 11, 160)        0         
_________________________________________________________________
reshape_1 (Reshape)          (None, 7040, 1)           0         
_________________________________________________________________
flatten (Flatten)            (None, 7040)              0         
_________________________________________________________________
mini_batch_discrimination (M (None, 7200)              3379680   
_________________________________________________________________
dense_1 (Dense)              (None, 1)                 7201      
=================================================================
Total params: 3,809,801
Trainable params: 3,809,241
Non-trainable params: 560
_________________________________________________________________
All models loaded.
Model: "Facenet_No_Softmax"
_________________________________________________________________
Layer (type)                 Output Shape              Param #   
=================================================================
First_Conv2D (Conv2D)        (None, 48, 48, 64)        9472      
_________________________________________________________________
batch_normalization (BatchNo (None, 48, 48, 64)        256       
_________________________________________________________________
re_lu (ReLU)                 (None, 48, 48, 64)        0         
_________________________________________________________________
max_pooling2d (MaxPooling2D) (None, 24, 24, 64)        0         
_________________________________________________________________
local_response_normalization (None, 24, 24, 64)        0         
_________________________________________________________________
Inception_2_Conv2D (Conv2D)  (None, 24, 24, 64)        4160      
_________________________________________________________________
batch_normalization_1 (Batch (None, 24, 24, 64)        256       
_________________________________________________________________
re_lu_1 (ReLU)               (None, 24, 24, 64)        0         
_________________________________________________________________
conv2d (Conv2D)              (None, 24, 24, 192)       110784    
_________________________________________________________________
batch_normalization_2 (Batch (None, 24, 24, 192)       768       
_________________________________________________________________
re_lu_2 (ReLU)               (None, 24, 24, 192)       0         
_________________________________________________________________
local_response_normalization (None, 24, 24, 192)       0         
_________________________________________________________________
max_pooling2d_1 (MaxPooling2 (None, 12, 12, 192)       0         
_________________________________________________________________
Inception_3a (InceptionModul (None, 12, 12, 256)       165168    
_________________________________________________________________
Inception_3b (InceptionModul (None, 12, 12, 320)       229568    
_________________________________________________________________
Inception_3c (InceptionModul (None, 6, 6, 640)         399712    
_________________________________________________________________
Inception_4a (InceptionModul (None, 6, 6, 640)         548608    
_________________________________________________________________
Inception_4e (InceptionModul (None, 3, 3, 1024)        719840    
_________________________________________________________________
Inception_5a (InceptionModul (None, 3, 3, 736)         794688    
_________________________________________________________________
Inception_5b (InceptionModul (None, 3, 3, 736)         665664    
_________________________________________________________________
average_pooling2d (AveragePo (None, 1, 1, 736)         0         
_________________________________________________________________
reshape (Flatten)            (None, 736)               0         
_________________________________________________________________
dense (Dense)                (None, 128)               94336     
_________________________________________________________________
l2_normalization (L2Normaliz (None, 128)               0         
_________________________________________________________________
Fully_Connected (Dense)      (None, 12)                1548      
_________________________________________________________________
2021-09-10 19:33:41.468344: I tensorflow/stream_executor/platform/default/dso_loader.cc:49] Successfully opened dynamic library libcublas.so.11
2021-09-10 19:33:41.944418: I tensorflow/stream_executor/platform/default/dso_loader.cc:49] Successfully opened dynamic library libcublasLt.so.11
2021-09-10 19:33:41.946905: I tensorflow/stream_executor/platform/default/dso_loader.cc:49] Successfully opened dynamic library libcudnn.so.8
2021-09-10 19:33:44.180599: I tensorflow/compiler/mlir/mlir_graph_optimization_pass.cc:116] None of the MLIR optimization passes are enabled (registered 2)
2021-09-10 19:33:44.200725: I tensorflow/core/platform/profile_utils/cpu_utils.cc:112] CPU Frequency: 3699850000 Hz
Logits (Dense)               (None, 10)                130       
=================================================================
Total params: 3,744,958
Trainable params: 3,735,646
Non-trainable params: 9,312
_________________________________________________________________
Loading glasses dataset...
Glasses dataset ready.
Loading impersonator dataset...
Other dataset ready.
Perform special training:
======= Attack training epoch 1. =======
(16, 64, 176, 3)
…
